models/lstm_acoustic_best_overall.pt (torch, 116516 bytes, 7 tensors)

lstm.weight_ih_l0 f4 [256, 28]
00000000: 625e 053e 2268 ff3c e142 0d3e 043e e2bc
00000010: ea42 d3bd 1c16 b43d c602 333d 15c8 acbd
00000020: 87c2 643d a949 7b3d 663e b13d 992c cdbd
00000030: 8569 ba3d 3389 b8bd 60ca 17bd 50e6 8ebd
00000040: 0a7d f13c b18b 853d 7123 013d 0614 76bd
00000050: d6df 953d 579f d9bd 1e21 483d 24f7 d63d
00000060: e8ae 3e3d fbab 363c 2dd2 10be cea9 3abc
00000070: 53a5 b73d 96df ba3d b00b 9ebd 1b4c c9bd
00000080: ea2f 293d 8924 863d 3d94 833d 8960 46bd
00000090: f2b4 593c 27c7 b33d d744 c03d 35ad 54bb
000000a0: 91ee 26bd b29c 0bbd 4e35 583d 63ba 72bd
000000b0: 2473 483c e01d d13c 38b7 05be 8219 b6bd
000000c0: f92d d33c 69ff f2bd b32a 3bbd a14b 093e
000000d0: 974e 0ebd 1f11 193d 1bca 6abb fa7d 52bd
000000e0: 4e44 c0bd 313a 0e3d 7219 e43d 55e4 fc3d
000000f0: c151 d73d bcc0 d3b9 d2ba b03c e0b1 383d
00000100: cc13 09bd 07e9 e93d c443 9ebd b87d c3bd
00000110: ac26 133e e29b 833d f342 c6bd 740a 82bd
00000120: 2828 efbd 6b1a 9b3a 1768 893d 56aa 0cbd
00000130: 9234 a43c 7c69 48bd 8c50 923d ed88 b03c
00000140: bf60 613d 18e2 b63d 74ba 82bc 178b bcbd
00000150: aed9 a3bd 2052 dcbd 9969 6ebd 65ec efbd
00000160: 71ac 9bbd db3e a43d e87d 5e3d c9d1 8fbd
00000170: 7810 1cbd d944 143e 3a0c bbbd c737 1bbd
00000180: 0bb5 c23c f3cc 3abd 2fc7 9e3d d1e2 a83d
00000190: 2877 75bd e5f6 6e3d 6026 953d 8c6f b93d
000001a0: b02a c7bd 2cbf b93d ad7e d3bd 9fb4 493d
000001b0: 4a19 d43d 454b fd3c 4458 6abd 1619 9b3d
000001c0: 54d3 fbbd d698 1fbb 0bf3 a0bd bfcc 8c3d
000001d0: 44c1 d93c ba9a dabd 0ad2 95bc 1edf c7bd
000001e0: 5510 f1bd 1b92 ae3d 8227 fabb c519 b93d
000001f0: f171 333c a22e 07be 9124 d73d 329f c6bc
00000200: c89c e93c 43e7 1fbd 936d 5d3b 48c1 683c
00000210: 0456 18bd 724f 0ebd 33a6 323d c3a2 c83d
00000220: 093a dc3c d88f 3c3d d776 f8bd aa29 f73d
00000230: 4141 eabd bb18 d83b 11cd 413d bbc3 a53d
00000240: 9c69 9dbc 8ea5 a2bd 4fee d4bc 113e 273c
00000250: 0847 2b3d 9d9e a7bd 01b9 a2bd d124 b73d
00000260: dfe9 b53d e973 b53d ecd2 e2bd 0678 8b3d
00000270: e219 f0bb 6d2c 063c b1e5 9b3b 34fc 023d
00000280: 97c8 fe3d 8bd1 153c 805d d0bd 8236 91bd
00000290: 6da8 ebbd f8c5 573d 08ed 3d3d 56eb 0f3d
000002a0: b590 bc3b d51b 4a3d f3d9 08bd bdb3 a53c
000002b0: 851f 393c d5b1 3b3d e862 3e3d 9c53 0b3e
000002c0: f4d4 12be 025f cf3d b6e6 ee3d 8ca6 373c
000002d0: d8c9 943d 1ace 11ba c32c ecbd 27e4 eebd
000002e0: add8 633d 517c dbbc a542 0b3d e271 e33d
000002f0: 5dc3 0abd 0714 2dbd c4a3 463c ad79 8ebc
00000300: dc94 8e3d 47cd 01be e9b5 27bc 6f8b da3d
00000310: 8134 4ebd 1824 2f3d 8a86 b73d ae3d 0fbc
00000320: b4ca af3d 8cd6 afbd f7e1 e23c d678 6a3c
00000330: 91b0 743b 8b24 b83c 3e31 86bc a70f a7bd
00000340: 26bb 5b3d 503b f8bd e25d e33d 53b8 803c
00000350: aea0 2c3c 5d7b 493d 962a 98bd bca4 99bd
00000360: bfda e7bc 2346 e8bd 2425 bf3d b4a6 95bb
00000370: b807 0fbe 5435 a4bd 964f f0bd d911 f0bd
00000380: f0ad 08bd f3d6 ffbd 9a6d e8bd 92fa 813d
00000390: d70f c23d 3151 e13b da44 2d3c d717 d1bd
000003a0: cc51 4d3d aa2a ce3d b18a 1ebd 5b5d 093e
000003b0: 35bb a63d 8c2f dc3d 09c3 50bd 531d 9dbd
000003c0: eecb 333c 01cf 1a3c 3fc0 603d e69c 76bc
000003d0: d84c 97bc 6f1a b5bb d68e ee3d 829b 753d
000003e0: 7add d23a 55cf 35bd 4693 463d fa76 753d
000003f0: 8a46 b23c c361 273d 8a2a 723d 0af9 7b3d
0.13024285 0.031177584 0.13795044 -0.027617462 -0.10315497 0.087932795 0.043703817 -0.084366
0.05584958 0.061349545 0.0865448 -0.10018272 0.091021575 -0.09010544 -0.037058234 -0.069775224
0.029478569 0.06520785 0.03152794 -0.06007769 0.07318084 -0.10626095 0.048859708 0.10496357
0.046553522 0.011149402 -0.14142676 -0.011393024 0.0896708 0.09124677 -0.07717073 -0.09828969
0.04130546 0.06549937 0.064247586 -0.048431907 0.01328777 0.0877822 0.0938813 -0.0032451872
-0.04075486 -0.034084983 0.05278521 -0.059259783 0.012234483 0.02552694 -0.13058174 -0.08891584
0.025778757 -0.11865122 -0.045695018 0.13407756 -0.034742918 0.037369844 -0.003582603 -0.05138967
-0.09388028 0.034723464 0.11137666 0.123482384 0.1051364 -0.00040388654 0.021573458 0.04509151
-0.033466145 0.114213996 -0.07727769 -0.09545463 0.14370221 0.06426217 -0.09680738 -0.0634965
-0.11677581 0.0011833435 0.06709307 -0.034342133 0.020044599 -0.048928723 0.07144269 0.021549666
0.055023905 0.08929843 -0.015958048 -0.09206217 -0.080005035 -0.107578516 -0.058206175 -0.117150106
-0.0760125 0.08019801 0.054319292 -0.07022435 -0.038101643 0.14479388 -0.091331914 -0.03789499
0.023767969 -0.04560561 0.07752835 0.08246387 -0.05992809 0.058340926 0.0728271 0.09054479
-0.09724939 0.09069666 -0.10326896 0.04924452 0.10356386 0.03091968 -0.057213083 0.07573144
-0.12296167 -0.0024352572 -0.07858857 0.0687499 0.026581414 -0.10674043 -0.018288631 -0.09759353
-0.11770693 0.08523961 -0.007634104 0.09038118 0.010952459 -0.13201383 0.10505021 -0.024245832
0.028517142 -0.039038908 0.0033787235 0.014206238 -0.037191406 -0.034743734 0.04361553 0.09796669
0.026883142 0.046035618 -0.12132042 0.12068494 -0.114382274 0.006594745 0.047314707 0.08093973
-0.019215398 -0.07941733 -0.02599254 0.010207669 0.041815788 -0.0818455 -0.07945443 0.08942569
0.08882498 0.08859999 -0.110753864 0.06810002 -0.007327304 0.008189303 0.004757606 0.0319788
0.12440603 0.009144197 -0.10174084 -0.07090475 -0.11506734 0.052679032 0.04636863 0.035136543
0.005754555 0.04934295 -0.033410978 0.020227307 0.011299019 0.04582389 0.046481043 0.13606113
-0.14339048 0.10125543 0.11665098 0.011209141 0.07265061 -0.00055620226 -0.11531975 -0.1166461
0.05562656 -0.026792677 0.033999104 0.11105706 -0.03387772 -0.042255428 0.012124006 -0.017392004
0.069619864 -0.12675963 -0.010236242 0.10671126 -0.05034304 0.04275903 0.08961208 -0.008742733
0.085835844 -0.085858434 0.027695639 0.014311036 0.0037336687 0.022478363 -0.016380902 -0.08157282
0.053645276 -0.12120688 0.11101891 0.015712893 0.010536356 0.049189914 -0.074299976 -0.07502124
-0.028302548 -0.113415025 0.09333256 -0.0045669917 -0.13967788 -0.08017984 -0.1173393 -0.11722154
-0.033369005 -0.1249217 -0.1134903 0.063466206 0.094756775 0.006876134 0.0105754975 -0.10209625
0.050126836 0.10066731 -0.038706485 0.13414519 0.08141176 0.10751256 -0.05096725 -0.07671609
0.010973914 0.009448768 0.05487084 -0.015052056 -0.01846926 -0.005526833 0.116483375 0.059962757
0.0016087734 -0.04438718 0.048480295 0.059927918 0.021762151 0.040864717 0.0591226 0.0615168

lstm.weight_hh_l0 f4 [256, 64]
00000000: 0687 d8bb 93d4 4ebd e6e2 6fbd 12cf 94bd
00000010: 9e2c a0bd c192 803d 613c 8abd f1ba 1b3b
00000020: 4c0b 783d 70ee acbb 9264 153d 62a5 b63d
00000030: a434 fe3c c1cf ba3d 3c1c 093e 5fa9 0cbe
00000040: a60b 1e3e 595c c4bd 0b55 fabd a7b3 f33c
00000050: ddc2 cb3d 3520 db3d 9375 8e3d af29 bd3d
00000060: e0dd 093c 368e c2bd 0392 b23d 090b 503d
00000070: 1758 c63c 5768 d2bc c848 f4bd c8e9 57bd
00000080: 8446 c7bd 6e8d b93d 0687 77bd 97cb dcbd
00000090: 6224 473d f979 05be d91f 95bd a5f6 17be
000000a0: ee32 0d3e 7084 a13d 3950 c7bd 8372 ee3b
000000b0: c8e2 d4bc d1a9 bebd 8cc7 e0bb 9e3a 773d
000000c0: 74bc 75bd 3b0c 113e e7ba 023c 1c10 1c3e
000000d0: a534 dc3c 3f84 f93c 6d38 ecbd e2be a23d
000000e0: 52cf bfba 8dff dd3c 065b a33d b625 093d
000000f0: c127 8a3d c18d b4bd f029 acbd 313e 833d
00000100: 48a6 07bd 465c 893d 42ea cdbd eb79 99bd
00000110: edf3 843c 2135 f33c c4b4 9dbc f1a2 64bd
00000120: 6960 cebd d129 b9bd 4dd5 483d 6a99 eabd
00000130: 9059 f2bc e80e 3a3d 6bf9 a0bd bb9a d9bd
00000140: b2b7 183d 03b7 1e3d 9c6e 243d de33 e03d
00000150: a24f c93d 95cb 31bd bdfb d1bd d52a 7abd
00000160: 6a56 1f3d a2b4 a43d 1d97 3ebd cda6 993d
00000170: 500e a33c 82e1 9b3c 8b81 313c 3629 cfbd
00000180: e8aa ad3d 6339 a73d 5a05 973d 8424 b6bd
00000190: 0fa3 df3d 3cdf d2bd cd75 cfba 091e edbd
000001a0: 10b1 543d 78b0 a4bd 346d 5a3b e61f bf3b
000001b0: 36b8 ebba 5d6b 09bd 590a 143d 06a0 8dbd
000001c0: d2a7 9ebd 0532 b23d c6dc 263d 4035 b43d
000001d0: 8dfb f6bd b3b5 bc3d c631 353d 8ec5 863b
000001e0: 8633 82bd dbac 7c3d 5a76 d43d e7f0 ae3d
000001f0: 6945 a33b c49e 753d 5a83 473d b363 053d
00000200: 6a5e 623d d73b 4b3d ab8d aebd c3fb e5bd
00000210: 1a4a 05be 9e98 e6bd fd50 af3d d571 bb3d
00000220: ae47 3fbd 5bc6 93bd ddf1 eabd 5002 8bbd
00000230: 9701 70bd bd0d c03c b36d 753d 8b12 8d3d
00000240: fea4 a03d 0b7f 7e3d 0e7c 503d bcda 83bd
00000250: 1fe7 80bd 1d59 d23c 1747 c2bd 3aeb d23c
00000260: d19a fa3b 17d6 93bd c769 1a3d 57df bbbd
00000270: a09a 0bbd 900d 9abd eab4 89bd acde fdbd
00000280: 5328 8c3b 9263 ef3d e85b 063e 7309 28bd
00000290: 26b1 82bd 04fb 7a3d 77a1 b7bd 117d ad3d
000002a0: 0c41 123d 2dcc 9abd aeac e9bd efaf d8bc
000002b0: 2080 3fbd f552 073d ad23 a6bd 8327 4f3d
000002c0: c076 0a3e 21a2 6bbd e19c 61bd 78e7 ee3d
000002d0: 1b18 f83d 66d8 c03d 2c67 27bd 33a7 453d
000002e0: a338 c0bd d0f0 80bc 47cb 9d3d 8d38 1fbd
000002f0: a11b fcb9 7ae7 c33d 0c20 89bd 3866 9c3b
00000300: 8e2b 24bd e708 d0bd 992c f7bc 8221 73bd
00000310: 100d 9e3d 492b 9ebd dcef ca3c b7af b53c
00000320: 84a1 e63c b1c9 eb3d be7a cabd 871b d73c
00000330: 66c9 bcbd b970 783d e6e3 83bc 015c c6bb
00000340: 7d3d 99bd 0062 a33d 0a9d 763d 636c 803d
00000350: 198f 863d 72af 043e 2b36 903d b231 02be
00000360: 1284 f03d b7e7 ec3d 8526 9b3d d631 acbc
00000370: 89aa bc3d 1f24 61bb 808f 41bd 6153 2f3c
00000380: 6e33 73bd a5a6 033d 4bd7 e5bc 0e36 023b
00000390: 50a4 093b 148f 263d 572c 0fbd c0f1 01be
000003a0: 292b 8bbd bc5c ac3c 1747 f2bd 8f45 02be
000003b0: 439e 97bd a03d bdbc 6260 02be d814 a1bc
000003c0: 3458 68bd 87ae a7bd ab2d 453c 6a3a 67bd
000003d0: 85e9 d43d 7b4c 413d abd2 db3c ef26 1cbd
000003e0: dd94 a2bd d371 cd3d dcdd bebd 89bd 8abb
000003f0: f883 953b fbad 15bd a98a 5f3d 74bf d03c
-0.006607893 -0.050495695 -0.058565997 -0.07266058 -0.0782101 0.06277991 -0.067497976 0.0023762549
0.06055765 -0.0052774474 0.036472864 0.08918263 0.03103096 0.09121657 0.13389677 -0.13736485
0.15434131 -0.095879264 -0.12223252 0.02974875 0.099492766 0.106995024 0.06956019 0.09236466
0.0084147155 -0.09499781 0.08719256 0.050791774 0.024211926 -0.025684519 -0.119279444 -0.052713186
-0.09730247 0.09060179 -0.060431503 -0.10781019 0.04861868 -0.1303481 -0.07281465 -0.14840181
0.1378896 0.078865886 -0.09732098 0.0072768345 -0.025987044 -0.09309734 -0.0068597253 0.060358636
-0.059994176 0.14164822 0.007979131 0.1524052 0.026880572 0.030458568 -0.115342 0.07946564
-0.001463393 0.027099395 0.07976346 0.03348323 0.06745864 -0.088161 -0.084064364 0.064083464
-0.033117563 0.06707053 -0.10054447 -0.07493957 0.016229594 0.02968842 -0.019251235 -0.055819456
-0.100769825 -0.09041179 0.049031544 -0.11455043 -0.029583722 0.045424372 -0.07860073 -0.106252156
0.03728456 0.038748752 0.040144548 0.10947393 0.09829642 -0.04340704 -0.102530934 -0.061076004
0.03890077 0.080422655 -0.04653083 0.07502518 0.019904286 0.019028429 0.010834108 -0.10115282
0.084798634 0.081652425 0.073740676 -0.088936836 0.10919773 -0.10296485 -0.0015827954 -0.115779944
0.051926672 -0.08041471 0.003332925 0.00583266 -0.0017983976 -0.033549655 0.03614268 -0.06915288
-0.07746853 0.08700947 0.04073789 0.08799219 -0.12059698 0.09214344 0.04423692 0.004112906
-0.063574836 0.061688285 0.10374136 0.08542042 0.0049826396 0.059965864 0.04870925 0.032565784
0.05526582 0.049617615 -0.08523115 -0.1122966 -0.13016549 -0.11259578 0.08560369 0.09152571
-0.04669922 -0.07215568 -0.11471913 -0.067875504 -0.058595266 0.02344405 0.05991907 0.068883024
0.0784397 0.062132876 0.050899558 -0.06438205 -0.06294083 0.025677258 -0.094862156 0.02574693
0.00764785 -0.07218569 0.037698533 -0.09173458 -0.03408301 -0.07522118 -0.0672396 -0.12395987
0.004277268 0.116889134 0.13120997 -0.041024636 -0.06381445 0.061274543 -0.08966344 0.0847112
0.035706565 -0.07558475 -0.11409889 -0.02645108 -0.04675305 0.0330381 -0.08112273 0.05057479
0.13521862 -0.057527665 -0.055081252 0.11665243 0.12113973 0.09416275 -0.040869877 0.048255157
-0.093858026 -0.015739828 0.07704788 -0.03887229 -0.0004808577 0.09565635 -0.066955656 0.0047729276
-0.0400806 -0.10157948 -0.030172633 -0.059358127 0.07717335 -0.077231 0.024772577 0.022178514
0.028153189 0.11513079 -0.098866925 0.026258243 -0.09218101 0.060654376 -0.016099881 -0.006053448
-0.07482431 0.079776764 0.060208358 0.06270673 0.065702625 0.12957552 0.07041582 -0.1271427
0.117439404 0.115676336 0.075757064 -0.021019857 0.092122145 -0.0034353805 -0.047255993 0.010701031
-0.05937522 0.032141346 -0.028056761 0.0019868645 0.002100248 0.040663794 -0.034954395 -0.12689877
-0.067953415 0.021040313 -0.118299656 -0.12721847 -0.07403233 -0.023100674 -0.1273208 -0.01966326
-0.056724742 -0.08187585 0.012034814 -0.056452192 0.10396103 0.047192078 0.026833853 -0.038123067
-0.0793855 0.10031476 -0.0931966 -0.00423402 0.004562851 -0.036542874 0.054575596 0.025481917

lstm.bias_ih_l0 f4 [256]
00000000: 8212 0c3e 405e 913d afc5 9fbb 1457 49bd
00000010: fc57 13bd cb48 d43d dcd6 e8bd 6f22 983d
00000020: f5ab bd3d 36a3 413d 670c 1a3c f1cf f83d
00000030: 9675 d23d 316b f3bc 6a08 acbd f0d6 f13d
00000040: 944d 82bc 5f6a b03c 356a 94bd 07f7 5abd
00000050: 3513 ac3d 41b1 a23d 54bd 0b3e 1ebc b73d
00000060: d33b 85bd c7db 8d3d 739f b33c 6a36 47bd
00000070: 83fc ef3d c033 bc3d 389a ba3c d8ad 5ebc
00000080: 198c dd3d 4af1 d2bd f30e d93d b222 1f3d
00000090: 702e bb3d c265 85bd 8604 adbd daab 303d
000000a0: 7a33 0e3d d2c5 53bd 7b5f 193e c490 113d
000000b0: a496 92bc 0786 cdbd 51e3 003e 6528 273a
000000c0: f2e4 bf3c 6978 39bd 5286 cf3d 6a40 91bd
000000d0: 48af 8cbd a421 b73d 054e 193d 3d53 003b
000000e0: 6a6f 933d e53c 873c fcd0 7ebd 0682 85bd
000000f0: 3729 e13d ce3a a03d 88cb f33d 6c23 e63c
00000100: 2707 9d3d bdbb d13d 1f64 ac3d a409 b93d
00000110: 250f b4bc 164a 513d 283d 993d 9225 c63a
00000120: 8bf1 413d b0b9 573d c048 c2bd 3e5a b5bd
00000130: 1f4e 813c dcb7 483d 8548 1abb c971 803d
00000140: 0209 223e 9065 423d cebe d93d e968 3d3c
00000150: 1df8 00be 044b aabd 147c b0bc 9b86 0a3e
00000160: eb87 713c 1c6a 62bc 2bb8 783b b94d 4f39
00000170: 22f5 10bd 1e83 3fbc ee6d 84bd b4e6 ed3c
00000180: ae07 cd3a 4b7e f7bd 39ae a2bd 3f62 d93d
00000190: a34c f6bd e148 ea3d c54d 293d 59b8 d13d
000001a0: 7235 203d 6b4d 703c b608 24bc 25fb 0a3e
000001b0: 45a4 833d 420b 753d 5df5 7e3d 84b5 febc
000001c0: 75f5 f93d 5802 eebc 9f0a 0d3e 7da1 23bd
000001d0: 1b92 46bc 1eb9 0e3e 1357 42bd 56de cabd
000001e0: a339 173d 2bff 803d c1c8 943d ba3a da3d
000001f0: 4cac 063e 220b afbd f3ac 553d a4a8 0c3e
00000200: 1673 463d 7f0b c8bc d291 80bd 8017 d1bc
00000210: 1ba5 a03c a7f1 bd3c 0d64 bd3c 4725 223d
00000220: a0ae 843d 7a07 bf3c 6e57 30bd b658 b43d
00000230: 57bd 123d 0fa9 8e3d 6f0e c93d 51e3 e6bd
00000240: 3641 80bd 3df1 4bbd b735 cebd f8c0 303d
00000250: dce7 febc 0aa3 4ebc c4e9 aa3d 4cbd 96bc
00000260: d70f b83d 840d dcbd bab8 e03a 1201 85bc
00000270: 82dd 04bd 1dec f73c 16e2 013d 8f35 cf3d
00000280: bd9c b5bc 9fd2 57bd 9457 9f3d bb42 26bd
00000290: e07d d2bc 4a76 e5bd bfed 55bd 894b f7bd
000002a0: 0841 033e 1c32 f7bd e36a fabd 376c 11be
000002b0: 6bb7 943d 514e ddbd 7873 91bd 28f4 213c
000002c0: 3b58 1f3e a095 2d3c 4ed5 06bd 6783 64bd
000002d0: 6db5 99bd a38e f4bd 5f44 07be 358c 3f3d
000002e0: 392e f13d 44ac a6bd 44e2 f13c ed58 17be
000002f0: afe0 a6bd f56a cd3d 5bf9 2bbd dcd0 d93d
00000300: ee0a 213d 79b8 febd c246 f13d 4603 953c
00000310: 978c 503d 128d d3bc af49 093e b362 8fbd
00000320: 6f84 a13d 6c57 e63d e28f 2ebd 2e2f 34bd
00000330: 9646 46bc fa06 90bc 1f7b 853d c956 423d
00000340: ebf3 c33d 26ab db3b e500 69bc 2352 4ebd
00000350: 2754 9e3d 8eaf c6bd b720 c53c 2c6b 1b3e
00000360: 6afb 6f3d 180f 5a3d 5625 653d a16f 8cbd
00000370: e7de 893d e96b 193e 12bb 6e3c 03a6 7b3b
00000380: a9e3 793c 6c29 6a3d a309 973d e6fa 933d
00000390: 88f2 213d a167 253d 0fc3 9ebb cf03 d63d
000003a0: cc8d 203e fe0d b4bd b169 3f3c fb17 85bd
000003b0: f39b c43d 51bf d53d f344 cd3d 6148 96bd
000003c0: bcdb e33d 2d64 a7bc 9c1a 043d 9c2c a13d
000003d0: f840 953d 6384 bf3d 61d1 61bd 6199 c3bd
000003e0: 92fd 2dbd a9cc 89bd 046f 053d 511d dabc
000003f0: e943 5d3c 933e ab3d 2433 29bd 667e a4bd
0.13678935 0.07098055 -0.0048758606 -0.04915531 -0.03597258 0.10365447 -0.11369106 0.07428443
0.09261314 0.04727479 0.009402371 0.12149037 0.10276334 -0.029714199 -0.08400042 0.11808574
-0.015906133 0.021535097 -0.0724682 -0.05345824 0.08402101 0.07943965 0.13646442 0.089714274
-0.06505551 0.06926685 0.021926617 -0.048635878 0.11718085 0.09189558 0.022778615 -0.013591252
0.10817737 -0.102999285 0.105985545 0.038851447 0.091397166 -0.065135494 -0.084481284 0.04313264
0.03471706 -0.051702328 0.14977829 0.03553845 -0.017894097 -0.10035329 0.12586714 0.00063765637
0.0234246 -0.045280848 0.101330414 -0.07092364 -0.0686937 0.08941963 0.03742792 0.0019580864
0.07198985 0.016508529 -0.06221102 -0.06518941 0.10994189 0.07823716 0.11904055 0.028093062
0.0766738 0.10240886 0.08417534 0.09035042 -0.021979878 0.051096044 0.07482368 0.0015117398
0.047349494 0.05266732 -0.09486532 -0.08855103 0.015784321 0.049003467 -0.002354176 0.06271703
0.15823749 0.04746014 0.10632096 0.011560657 -0.12594648 -0.08315089 -0.02154354 0.1352791
0.014741878 -0.013819244 0.003795157 0.00019770012 -0.035390027 -0.011688976 -0.0646628 0.029040672
0.0015642548 -0.12084635 -0.079433866 0.10614442 -0.12026336 0.11439682 0.041333932 0.1024024
0.03911347 0.014666895 -0.0100118425 0.13572367 0.06427816 0.05982519 0.062245715 -0.031092413
0.1220502 -0.029053852 0.13773583 -0.03994893 -0.012119795 0.13937804 -0.04744632 -0.099056885
0.0369202 0.062986694 0.07264853 0.106557325 0.13151664 -0.08547045 0.05216689 0.13736206
0.0484496 -0.024419544 -0.06277813 -0.025523901 0.019609978 0.023186518 0.023118997 0.03958633
0.064786196 0.023318995 -0.04305213 0.08805983 0.0358251 0.06965839 0.09817206 -0.11273826
-0.06262438 -0.04979061 -0.10068839 0.04315278 -0.031116419 -0.012612114 0.083453685 -0.01840081
0.08987396 -0.107447654 0.0017144897 -0.016235862 -0.03243781 0.030263955 0.031709753 0.10117637
-0.022169465 -0.0526911 0.07780376 -0.040590983 -0.025694788 -0.112042025 -0.052228685 -0.12074954
0.12817776 -0.120701045 -0.12227418 -0.14201437 0.07261547 -0.10805953 -0.07102102 0.009884872
0.15561001 0.010594755 -0.032918267 -0.055789378 -0.07505307 -0.11941268 -0.13209675 0.04676457
0.117763944 -0.08138326 0.029526837 -0.14780016 -0.08148324 0.10030166 -0.04198585 0.1063554
0.039317064 -0.12437529 0.11781074 0.018190037 0.050915327 -0.025824104 0.13407014 -0.07001247
0.07886588 0.11247143 -0.042617686 -0.043990307 -0.01210179 -0.017581452 0.06517624 0.047446046
0.09568008 0.006703752 -0.014221405 -0.0503713 0.077308945 -0.09701453 0.024063451 0.15177602
0.058589377 0.05323705 0.05594381 -0.06857229 0.067319684 0.1498257 0.014570968 0.0038398511
0.015252032 0.05716841 0.07374885 0.072255895 0.039537936 0.04038203 -0.00484503 0.10449945
0.15679091 -0.08791731 0.011682914 -0.064987145 0.096000575 0.10436881 0.10022917 -0.07338024
0.111258954 -0.02043351 0.03225194 0.07869837 0.072877824 0.09351423 -0.05513132 -0.09550739
-0.04247815 -0.06728489 0.032576576 -0.026625307 0.013504961 0.083615445 -0.041308537 -0.08031921

lstm.bias_hh_l0 f4 [256]
00000000: 6c1e d7bc 7e01 cd3d ecdd 453c a555 ec3d
00000010: 228e 1d3d 06eb 0e3e fceb 46bd 1f4f f93b
00000020: 000e 3e3d e3db 063e 58c8 bc3c 0a58 e73d
00000030: aef6 513d d054 073c 4c03 f63d f0bf 833d
00000040: a03b 2abc fef1 eb3d 451a abbc 86ae f63d
00000050: c931 9dbd b8f7 ad3d 6dc1 91bd bf23 17bd
00000060: c5e0 5a3d e7ac 6a3d 8bc4 4b3d b3a7 a63d
00000070: a69a 193e ec97 5d3d 8422 833d 0e13 8ebd
00000080: 97d1 90bd 00b2 3fbd 7b08 41bd 5522 6dbc
00000090: 77b6 4bbd 7363 123c 7338 51bd ec9e 1a3e
000000a0: 58f4 183e 69cf 96bd 6341 6dbd 955b bdbc
000000b0: a8ed 90bd b7b3 6c3d cd67 803d 3256 053d
000000c0: c8e7 593c b58e 66bc c42a 0f3e e970 6bbd
000000d0: 82c3 dc3d 50bf d2bd 5ab5 023d 4a6c bdbd
000000e0: d591 b0b9 8912 e23d 77f9 533d 8c78 dcbd
000000f0: ee9f 823d fcdd 083e 29e1 bd3d cdd8 773d
00000100: af03 ba3d 9a19 9c3d 7b93 0f3e f581 bebd
00000110: 06be ae3b 9de9 18bd 0c33 a2bd f7bd 913d
00000120: f299 92bd e8c2 063e bfe8 8e3d cd76 943d
00000130: 0855 a03d 7721 3a3d 7048 b83d 6c37 fb3d
00000140: 49df 90bd 1796 2b3d cea7 57bd 72ee 8ebd
00000150: 9d0b 37bd a214 bcbd 9158 fabc 7692 e53b
00000160: 8731 9fbd 6074 c73d 004b 6ebd da61 71ba
00000170: 3360 c03d c161 ad3d ff2c a43d 4300 3abd
00000180: d795 b83d bcd3 b33c 991d 2e3d 9285 8f3d
00000190: 7d69 acbd 05a4 a03d 6404 6dbd 591d 563b
000001a0: a245 b43d 0f2c 993d 9887 1b3e a8e2 523d
000001b0: 10fa 893c 6ff4 113e 0125 7c3d 4b5a 413d
000001c0: d07b 283d 47d1 9dbd bfeb 27bd 8a85 87bd
000001d0: caac eebb 1442 9a3d c839 cd3c 1e2d e33d
000001e0: c366 0d3e d2ee ab3c 6e48 81bd 3918 013d
000001f0: 50ce 1abd 51cb 2dbd 6c94 f13c 2fed 06bd
00000200: 406c 113e 68a6 3e3d 2c69 39bd 2be6 e9bd
00000210: e2f2 cbbd bfe7 f6bd e58a 8cbd 5085 a8bd
00000220: a645 cabc 82dc 483d 359d a1bd 1053 86bd
00000230: 3603 bbbd 379c afbb 647e cf3d 9b4f 02be
00000240: eccc b23d c342 90bd 356c f5bd 4089 083e
00000250: 58f2 873c 3123 debd a46f 853d c33a 84bd
00000260: 05c9 583d 60d8 01bd 119d 563c 4dd4 533d
00000270: d0d1 dc3d 087c 2f3d 3e42 6cbb 1b65 6e3d
00000280: aa1e ecbd 9fbd c0bb 2484 b53d ce93 84bc
00000290: 5981 9cbd 31b6 55bd 25b7 b03a c0a7 75bd
000002a0: f772 223d 2f2d 07ba 03a3 febd ac00 9b3d
000002b0: b4b0 043e 1e0a babc 0f06 1ebe b5d5 4a3c
000002c0: af15 863d db57 86bd c8d0 86bb bbbc af3d
000002d0: 6fe3 a03d 369a acbd e538 12bd d1d9 b1bc
000002e0: b187 3dbd 92d7 50bd 78d3 c3bd 5c27 5bbc
000002f0: 3cd7 ab3d 8884 f03d df38 fe3d 635e 323b
00000300: a566 e43d 797c cfbd 70cd 80bd 2613 e93d
00000310: ec9e 49bd 079f 22bd a2ba babd ab47 afbd
00000320: e37b 8d3d 27a8 e23d 4f46 f5bd ea5d 03bd
00000330: 6262 ec3d 90cf c9bb 0a60 9ebd cffc c7bd
00000340: e7ae afbd 58b5 cc3d 95ff d4bb 65ea 54bc
00000350: 6aba 1fbd dbae 80bd b917 ba3d e0e9 083e
00000360: f73f 2a3d 2a8f cfbb b439 7a3d 7c0f 9cbd
00000370: 3f4f 1c3e 2b09 613c 1e7f 083e 15d5 073e
00000380: 0016 9d3d 4a66 c63d 0113 ffbb cc01 333c
00000390: cb9a 02bc 9509 cdbc 1650 d1bd 6fd7 3ebc
000003a0: 027e 05bd 38ee 60bd de4c d3bc 2abb 73bd
000003b0: 57f8 043e e9e8 9d3c c516 2cbd 39a0 a43d
000003c0: 3a71 033c c6e9 933d 9563 113e 0811 a6bc
000003d0: 3b0a ba3d 04f2 9cbd f362 0a3e 776c c5bd
000003e0: f1aa 8bbc f206 a43d e119 d4bc 17f4 cd3d
000003f0: 6933 53bd 8490 09bd 8dd3 bf3c 099b 0f3e
-0.026259623 0.1001005 0.012076836 0.11539773 0.038465627 0.13956842 -0.048564896 0.007608309
0.04640007 0.13169818 0.02304475 0.11296089 0.051260643 0.008259967 0.120123476 0.064330935
-0.010390192 0.11520766 -0.02088655 0.120450065 -0.076755114 0.08494514 -0.07116971 -0.036899325
0.053437013 0.0572938 0.049747985 0.08137455 0.150004 0.054099962 0.06403068 -0.06937228
-0.07071226 -0.046800613 -0.04712723 -0.014473517 -0.04973456 0.008934843 -0.051079225 0.15099686
0.1493696 -0.07363779 -0.057923686 -0.023114959 -0.07076579 0.057788577 0.062697984 0.032552905
0.01329989 -0.01407211 0.13981158 -0.057480726 0.10779478 -0.10290396 0.03191123 -0.0924917
-0.0003367799 0.110386916 0.05175158 -0.1076518 0.063781604 0.1336593 0.092714615 0.06050949
0.09082734 0.076220706 0.14021103 -0.09302131 0.005332711 -0.037332166 -0.07919893 0.07116311
-0.07158269 0.13160288 0.069779865 0.07249222 0.078287184 0.04544207 0.08998191 0.1226643
-0.07073838 0.041891184 -0.052650265 -0.069790736 -0.04468881 -0.09183623 -0.03055981 0.007005985
-0.077731185 0.09738994 -0.058176994 -0.00092080014 0.093933485 0.08465911 0.08016395 -0.045410406
0.09012955 0.021951549 0.042508695 0.070078984 -0.08418558 0.07843784 -0.057865515 0.00326713
0.08802344 0.07479107 0.15188444 0.051485687 0.016842872 0.142534 0.061558727 0.04720525
0.0411337 -0.07705932 -0.04099631 -0.066172674 -0.0072837817 0.07532135 0.025051966 0.1109259
0.13808732 0.020987902 -0.06312643 0.03151724 -0.03779441 -0.042430226 0.029489718 -0.03294104
0.1420145 0.046545416 -0.045266315 -0.11420854 -0.099584356 -0.12055921 -0.068624295 -0.08228552
-0.024691414 0.049038418 -0.07891313 -0.06558812 -0.09131472 -0.0053591984 0.10131529 -0.1272568
0.08730492 -0.07043984 -0.119835295 0.13333607 0.01659505 -0.10846556 0.065154344 -0.064565204
0.052926082 -0.031700492 0.013098971 0.051716138 0.10782206 0.042842895 -0.0036050226 0.05820189
-0.11529286 -0.0058819796 0.088630944 -0.01618376 -0.076418586 -0.052175704 0.0013482316 -0.059974432
0.03966042 -0.0005156574 -0.12433436 0.075684875 0.12958032 -0.022709902 -0.15431999 0.012380053
0.065471046 -0.06559726 -0.004114244 0.08580919 0.078558795 -0.08427851 -0.03569879 -0.021710308
-0.046271984 -0.050986834 -0.09561819 -0.013376083 0.08390662 0.11744028 0.12413191 0.0027216903
0.111523904 -0.10131163 -0.06289184 0.113806054 -0.049223825 -0.03970244 -0.09117629 -0.085585915
0.06908395 0.11067229 -0.11976301 -0.032071985 0.115422025 -0.0061587766 -0.07733162 -0.09765016
-0.08578282 0.09995526 -0.0065001943 -0.012995337 -0.038996138 -0.06283351 0.09086556 0.13370466
0.041564908 -0.006334205 0.061090186 -0.07620141 0.15264605 0.013735096 0.13329741 0.13264878
0.07670212 0.09687479 -0.007784248 0.010925721 -0.007971476 -0.025028983 -0.10220353 -0.011648043
-0.032590874 -0.054914683 -0.02579349 -0.059504665 0.12985359 0.0192761 -0.042013902 0.080383725
0.008022601 0.07222323 0.14198144 -0.020271793 0.090839826 -0.07663348 0.13514309 -0.09639829
-0.017049285 0.08009137 -0.025891246 0.10056322 -0.0515627 -0.033585086 0.023416305 0.14023985

fc1.weight f4 [64, 64]
00000000: 3230 b6bd 751a d3ba 90e2 c6ba 020a 4b3a
00000010: 755f be3a cbc1 963d f164 b33d 839b 25bd
00000020: 2362 0f3d 9d85 8abd 7696 0c3d 62be cb3a
00000030: fc12 f73c ff2e 70bd d1f3 5f3c da1e adbb
00000040: ed25 0a3b a322 88b9 e06e 933d 8c14 a63d
00000050: 36e4 853a 18e6 1a3d 3c79 66bd 7ee7 42bd
00000060: 0e3d b73d 1923 0f3c cde6 c23c ed38 713c
00000070: 5ed4 7dbd 63cc 953c 4a50 5b3d 1a61 66bd
00000080: b962 d938 8043 8dbd 2073 8bba c3d8 2abc
00000090: 8310 333d cfaf 11ba 9fa5 6c3d 870c cbbc
000000a0: 3b56 f3ba 7d4c 8dbd 14ae 313d 6e9b 76bd
000000b0: 5869 9fbb 9e0d bdbb 16a4 1bba 4fb4 213d
000000c0: 020d 3c3a b067 953d 022a a93d 6d2f 853c
000000d0: 016a 5f3d 64f4 053d b46b c6bc 1e64 3a3c
000000e0: 82b1 42bd 945c 54bc e1ab 9b3c 486c b73b
000000f0: bad6 02bc 359d 70bd dd25 87bd f645 c33c
00000100: c47e ae3c 81b7 de3c 061f f33d 625d 36bd
00000110: 0be6 1bbe 4a61 1ebe 9adf 6fbd e29c 1abe
00000120: 0013 f03d 404a 22bd b4e6 c63d 3381 b43d
00000130: ed10 a4bc 2802 a0bd 97cf 90bd 1021 10be
00000140: e945 c4bc e684 823d 864e 61bc a211 98bd
00000150: 8542 833d 9c16 a33d 218a d03d dc76 04bd
00000160: fdeb 4c3d 0d7a aabd dc3a 22be af3b 1cbc
00000170: e7ab 0b3e 5856 f13c c5e2 11bd 9655 02be
00000180: 3e8f c8bd bc06 d8bd 9c34 93bd 8d49 8f3c
00000190: 914d be3d 8f02 763d 3073 a2bd c10b c73c
000001a0: a277 ff3d bcac 963c 0442 58bb 1fba d7bd
000001b0: 917e 203d bb9b 463d 7c54 b5bd 2823 13be
000001c0: fcb2 a43d 997a df3d 30ae f3bc 5edf 033e
000001d0: ed14 f7bd 4488 20be e53e e2bd 3d1b b7bd
000001e0: ce3c d93d 6377 ff3b fa0a 893d c482 2b3b
000001f0: 0d9c a43d 9fd0 483c ee5c a33d e07c 61bd
00000200: 10f3 9cbd f8ce 343c 422f 4b3c fb2d 79bd
00000210: f418 aebd 6cb3 1b3d fa0a d7bd 3563 203d
00000220: 387c 65bd 20c8 363d 9fae cdbd e416 e1bd
00000230: 686b cdbd a74d aa3d dae1 bd3d 2be7 d13d
00000240: b3e8 ccbd 7b66 de3d a9de 78bd b015 e1bd
00000250: e234 9dbd a984 d7bd 2b02 343d d6c3 723d
00000260: 11da 5b3c 9c2d c83c 58ad 04bc abdb c8bd
00000270: be43 bb3d 949f 4bbd 89bf a93d 4135 8abd
00000280: 3083 3a3d 4aba 93bd 1091 68bd b152 59bd
00000290: bf30 9fbd d646 9dbd 519b ab3b 4658 053d
000002a0: b99f a4bc 2f5d b2bd 15ea b53d aeb7 06bd
000002b0: 864f cc3c 500e 96bd 1782 79bd 2739 b5bd
000002c0: cffe e03d 6511 6d3d 7eff 433b 8e94 f9bd
000002d0: 4376 6bbd 73df a13d ebb0 f93d 40d6 8f3b
000002e0: 4dc1 fcbd 5b0c 5d3d cdb9 c73d 5f8b e0bd
000002f0: a2ef adbd bf4e 223d 02a5 2c3d 2e7b c4bd
00000300: 506c 18ba 8bde 983c cc0d f6bb 3368 36bd
00000310: ae67 513a 3101 74bd 3101 56bb a446 edba
00000320: bcd3 55bd 6b16 00bd d38d 96bd 00c9 eebb
00000330: 8124 403a 2284 8d3d b7eb 02bc 6650 643d
00000340: a9f7 723d 69bf b23c 115a 0fbb 7962 3e3d
00000350: fcba b33d 48ce b83d d907 a43c 6c99 d03a
00000360: 7fa1 55b9 330d 11bc d571 f93c 3b67 84bd
00000370: 72ef c6ba 8617 0fbb 9159 15bb 21fb 8c3d
00000380: e40f 07bd e05a 9b3d 02bf 0fbd 2a7e 10bd
00000390: 9efd 803d 5987 0239 1bc2 d4ba 9dc6 cbbc
000003a0: cd4f 0abb c8a9 78bc ab2f 9b3d ee9d fa3c
000003b0: 113e 903c 2a41 adbd 2b1f ce3c 9273 45ba
000003c0: 3299 85bd 3df4 303a 75b8 413d 5291 df3c
000003d0: e2b7 5f3a b80f 22ba 2eb1 a6bd 7f49 a2bd
000003e0: 2a37 86bd 4668 1f3d d15f f039 1c55 51bd
000003f0: d3e4 8a3c d530 903c da39 01bd 6ff2 44bd
-0.08895911 -0.0016105907 -0.0015173722 0.0007745327 0.0014524298 0.07361182 0.087594874 -0.04043151
0.0350057 -0.06763766 0.03432318 0.0015544409 0.03016042 -0.05863857 0.01366897 -0.005283219
0.0021079734 -0.00025965748 0.07198882 0.08109388 0.0010215107 0.03781709 -0.05626796 -0.04758405
0.08947192 0.008736395 0.023791695 0.014723045 -0.061970107 0.018285936 0.053543366 -0.056244947
0.00010365755 -0.0689764 -0.0010639168 -0.010427657 0.04371692 -0.00055575086 0.057775136 -0.024786247
-0.0018565127 -0.068993546 0.043378904 -0.060206823 -0.004864853 -0.0057694456 -0.00059372315 0.039478596
0.0007173569 0.072951674 0.082599655 0.016257966 0.054544453 0.032703772 -0.024221279 0.011376409
-0.047532566 -0.0129615255 0.019002857 0.005597625 -0.007985765 -0.058743674 -0.06599019 0.02383707
0.021300681 0.02718711 0.118711516 -0.04452265 -0.15224473 -0.154668 -0.058562852 -0.15098909
0.11722374 -0.03962159 0.09711972 0.08813705 -0.020027602 -0.07812911 -0.070708446 -0.14075112
-0.023959117 0.063730046 -0.013751632 -0.07425238 0.06409172 0.07963297 0.10182596 -0.032339916
0.050029743 -0.083240606 -0.15842766 -0.009535714 0.13639794 0.029460117 -0.035616655 -0.12727961
-0.09792946 -0.105481595 -0.07187769 0.017491126 0.09292138 0.060061034 -0.079321265 0.024297597
0.1247399 0.018392913 -0.0032998333 -0.10533547 0.039183203 0.04848836 -0.08854005 -0.1436888
0.08041951 0.109120555 -0.029746145 0.12878177 -0.12064538 -0.15676981 -0.110471524 -0.08940742
0.10607301 0.0077962144 0.06691547 0.0026170472 0.08037577 0.01225677 0.07976709 -0.05505073
-0.07663548 0.011035673 0.012401404 -0.060834866 -0.08500853 0.038012907 -0.105001405 0.03915711
-0.056026667 0.044624448 -0.10043072 -0.10990694 -0.10030252 0.08315592 0.092715934 0.1024917
-0.10005321 0.1085939 -0.06075922 -0.10990465 -0.07676102 -0.1052335 0.04394738 0.059268795
0.01341869 0.02443581 -0.008097969 -0.09807523 0.0914378 -0.049712732 0.082884856 -0.067484386
0.045535266 -0.07213266 -0.056778967 -0.053057376 -0.077729695 -0.076795265 0.005237021 0.032554887
-0.020095693 -0.087091796 0.08882538 -0.032890014 0.024940263 -0.07326949 -0.06091508 -0.088487916
0.10986101 0.057877917 0.0029906924 -0.12186538 -0.05748583 0.07903948 0.121919475 0.0043895543
-0.12341557 0.05396686 0.097522356 -0.10964083 -0.08492972 0.03962588 0.04214955 -0.09593807
-0.00058144797 0.018660804 -0.007508969 -0.044532966 0.0007988167 -0.05957145 -0.0032654519 -0.0018102718
-0.05220388 -0.03127138 -0.073512696 -0.0072871447 0.0007329658 0.06909968 -0.007990769 0.055740736
0.05931822 0.021819787 -0.0021873752 0.04648063 0.08775899 0.0902372 0.020023273 0.0015914864
-0.00020373425 -0.008853245 0.030449787 -0.06465002 -0.0015177561 -0.002183409 -0.0022788981 0.068838365
-0.03297414 0.075856924 -0.03509427 -0.03527657 0.06298374 0.00012448187 -0.0016232164 -0.02487498
-0.0021104694 -0.015177198 0.07577451 0.030592885 0.01760772 -0.08459695 0.025161346 -0.0007532175
-0.0652336 0.00067502615 0.047295053 0.027290974 0.00085341756 -0.0006182152 -0.08139263 -0.079241745
-0.065534905 0.038917802 0.00045847756 -0.051106557 0.016954815 0.01760141 -0.031549312 -0.048082765

fc1.bias f4 [64]
00000000: 6f8e 75bd c268 063e de61 97bd 327d a9bd
00000010: b255 7e3d 4490 d13c 5933 adbd 1177 ac3d
00000020: ca50 52bc cebb 8abd 8135 053d d464 0f3e
00000030: 122e 783c d2a9 34bd 19c2 1e3d ac7b 1abd
00000040: 293e bb3a 7cf0 673d 2555 f8bd 26e8 533d
00000050: 6c5f 43bd c180 29bd 3546 10be 29ff 823d
00000060: feff bcbc 363d 833c 4c8a 10bd 9c34 4cbb
00000070: 138c c4bc 5819 b7bc 21ed 94bc 1994 fcbc
00000080: 5eb7 72bd 8c89 04bd 7381 b43b 27d1 afbd
00000090: 90b6 163d 1fb7 5d3d baaa b6bd e251 c2bc
000000a0: 78ac 153d 5f48 5b3c 10ac bd3d c537 153d
000000b0: 1681 6a3c cc52 b13d ceaf 9fbd 2752 d3bd
000000c0: df1b e7bc 0af7 9dbd 9011 a0bd faa1 02be
000000d0: e105 f4bd c577 3fbd 29e4 a4bd 98a2 77bc
000000e0: 45a5 0ebd 5851 8d3d e65e 96bd a4c0 d7bd
000000f0: 0db3 0d3e 6979 8c3c 5255 903d 1e47 ba3d
-0.05995029 0.131259 -0.073917136 -0.08275832 0.062093444 0.025581487 -0.084570594 0.084211476
-0.012836644 -0.06774102 0.03252173 0.14003307 0.015147703 -0.044107266 0.038759325 -0.0377156
0.0014285493 0.05662583 -0.12125615 0.051735066 -0.047698423 -0.041382555 -0.14089282 0.06396324
-0.023071285 0.016020399 -0.03528814 -0.0031159287 -0.023992574 -0.022350952 -0.018179478 -0.030832337
-0.059256904 -0.032357737 0.0055085956 -0.085848145 0.0367952 0.054129716 -0.08919282 -0.023720685
0.036541432 0.013383954 0.09261334 0.03643014 0.014313003 0.086583704 -0.07797204 -0.10318404
-0.028211532 -0.077131346 -0.0781585 -0.12757102 -0.11915184 -0.04674508 -0.080513306 -0.015114449
-0.034825582 0.06900281 -0.07342319 -0.1053479 0.13837834 0.017147737 0.070475236 0.09095596

fc_out.weight f4 [1, 64]
00000000: 7517 2fbd 0a0e c33d 3f0a 1ebd 108e 85b9
00000010: f0cf 803d b2ff 21bb 3bf3 95bd 4ad0 86bd
00000020: 66a0 503d e326 b0bb 5448 37bd 22c2 003e
00000030: ec22 203e a624 87bd c4fa c13b 8906 d23d
00000040: b03b d6bd 5330 db3c be80 c5bc 8a33 d7bd
00000050: cf49 27bd 7098 1a3e 9d9e 71bd 92c0 70bd
00000060: 23a2 783d c6fc e6bd df66 bf3d 979f 81bd
00000070: f4dc c7bd 5070 0fbd 340b 47bd 4042 b23d
00000080: 1bb0 01bd e3d3 013e 14e2 72bd 82f8 ae3d
00000090: 0376 a1bc a9d8 1e3e d535 0e3e eb15 97bd
000000a0: 1434 b1bd 6611 c03d c057 d8bd 9601 eb3d
000000b0: 4467 e13d 154e dfbd d9b6 103d 73b7 87bd
000000c0: e291 a33c a9c5 99bd c566 ef3d f5c8 8ebd
000000d0: 9bad b8bd 1753 85bc d70b debc 27d3 48bd
000000e0: 5e34 3dbd 8882 823d 959d d1bd ac60 eebd
000000f0: e376 1c3e 7dae a43d 791f 47bc dd8c 493d
-0.04274698 0.09524162 -0.03858399 -0.00025473582 0.06289661 -0.0024719057 -0.07321783 -0.06582697
0.050934218 -0.0053757294 -0.04474671 0.12574056 0.15638322 -0.06598787 0.005919786 0.10255153
-0.10460603 0.026756441 -0.02410924 -0.10507877 -0.040841874 0.15097213 -0.058989156 -0.0587774
0.0607015 -0.112786815 0.09345793 -0.063292675 -0.0975894 -0.03501922 -0.04859467 0.087040424
-0.031662088 0.12678485 -0.059297636 0.08543493 -0.019709593 0.15512337 0.13887723 -0.073772274
-0.08652511 0.093783185 -0.10563612 0.11474912 0.110060245 -0.10903565 0.035330627 -0.06626787
0.019967023 -0.07508404 0.116895236 -0.06971923 -0.090174876 -0.016274972 -0.027105255 -0.049029496
-0.04619252 0.06372553 -0.102351345 -0.116395324 0.15279727 0.080410935 -0.0121535 0.049206603
